02_pytorch中的数据加载/model/model.pt (torch, 90703 bytes, 4 tensors)

fc1.weight f4 [28, 784]
000000 4e a1 64 bc 93 f4 fa bc 68 23 f2 3b 48 a9 94 3b
       -0.013954474 -0.0306342 0.0073894747 0.0045367815
000010 aa 6c c1 3c 34 bb 2f 3c f0 f8 b6 bc 9a 8c f4 bc
       0.023611385 0.010725785 -0.0223355 -0.0298522
000020 67 a4 82 bc 80 2e 93 3b 29 cf 08 3d f8 fc 9e bb
       -0.015947534 0.004491627 0.03340069 -0.0048519336
000030 1c 96 94 bd ac 4c c2 bd 40 ec 8c 3d ce 93 64 bc
       -0.072551936 -0.0948728 0.068809986 -0.013951255
000040 32 96 ee 3c 24 d3 f1 bb 62 a3 d5 3c 40 42 8b bc
       0.029124353 -0.0073799063 0.026078884 -0.016999364
000050 e0 77 78 bb ad 60 0d bd e8 2f b3 3c 24 8c 2b 3c
       -0.0037913248 -0.034516025 0.02187343 0.010470424
000060 5e a3 ad bc 98 85 59 3c a5 76 c8 bc f6 03 db 3c
       -0.021196064 0.01327648 -0.024470637 0.026735287
000070 a3 be f9 bc fc 47 4d 3c 6a 73 f1 3c 25 7c 06 bd
       -0.03048641 0.012529369 0.029473979 -0.032833237
000080 00 0a 2d b9 f2 08 c4 3c 44 9e 05 be c6 fd 06 be
       -0.00016502291 0.023930047 -0.13048655 -0.13182744
000090 e2 e1 a2 bd 39 23 88 bd 0f 83 e3 bd b3 02 16 be
       -0.0795324 -0.06647343 -0.11108982 -0.14649467
0000a0 b7 d0 47 be ee 0b 4a be 2c 57 4f 3d 27 62 0a be
       -0.19513212 -0.19731113 0.050620243 -0.13514005
0000b0 9a 1a e4 bd d5 61 2e be 1a 1d 80 be 26 c4 10 be
       -0.11137886 -0.17029507 -0.25022203 -0.14137325
0000c0 7c bf 05 be 8e c4 09 be 82 a2 e5 bd 36 db 46 bd
       -0.13061327 -0.13453886 -0.112126365 -0.0485489
0000d0 78 a9 04 bc eb 20 0c 3d 38 59 6d 3c 5a f0 ba bc
       -0.008097045 0.03421108 0.014486603 -0.022819687
0000e0 08 85 b0 bc b0 b2 ff bb 6c 0f 90 bc 08 57 07 3c
       -0.02154781 -0.0078032836 -0.017585479 0.008260496
0000f0 50 38 1c be f0 ea 2e bb 7c a8 a0 bd 58 f6 25 be
       -0.15255857 -0.0026690327 -0.07844636 -0.16207254
000100 23 4d 36 be 3c 6f a5 bd f4 9d 3d be 4a e8 f4 bd
       -0.17802863 -0.08077857 -0.18517286 -0.11958368
000110 81 cc f4 bd bb 47 1f be ff e2 4c bd 0c 91 6a bc
       -0.119530685 -0.15554707 -0.050021168 -0.014316808
000120 3c 10 96 3c 24 d1 3a bd 8d 07 e3 bd ca 92 13 be
       0.018318288 -0.04560961 -0.110854246 -0.14411464
000130 47 7c 73 bd fc ec 90 bd 6e b3 3e be 04 7a 0a be
       -0.059444692 -0.07076451 -0.18623134 -0.13523108
000140 48 4a 84 3d ef 7b b4 3d 80 31 bc bb b0 9c e0 bc
       0.064594805 0.08812701 -0.0057432055 -0.027418464
000150 90 ef 4b 3b 5c 3f 9e bc c2 dd e1 bc 42 a2 c8 3c
       0.0031118132 -0.019317321 -0.027571563 0.024491433
000160 60 96 4b 3c 3c 1c 18 3c 1f 3c fb bd 24 be 4f be
       0.012425989 0.009284075 -0.122673266 -0.20287377
000170 d7 c6 82 be 98 ab 3f be b1 87 07 be 5e a3 a8 bd
       -0.25542328 -0.18717802 -0.13235356 -0.08234285
000180 b8 97 ff bd 8d d4 49 be de b7 34 bd 07 7f 82 3b
       -0.1248011 -0.19709988 -0.044120662 0.003982428
000190 85 0b 34 3d 74 06 c9 3d 84 53 21 3e 5d 92 42 3d
       0.0439563 0.09815684 0.15754515 0.047502864
0001a0 37 0f 0b 3d a8 90 17 bb f5 d6 e3 bd dd 33 9e bc
       0.033950057 -0.0023126993 -0.11124984 -0.01931184
0001b0 83 88 ef 3c 7a 6e d9 3d 0c b4 0a be a3 01 a7 bc
       0.029239899 0.10616775 -0.13545245 -0.020386523
0001c0 d8 1e 62 3c b8 e2 bc bb bb 9b 82 3d dc 0a ac bc
       0.013801299 -0.0057643317 0.063773595 -0.021001272
0001d0 e5 55 38 bd 31 16 77 bd 11 54 83 bd de da e7 bd
       -0.04500379 -0.060323898 -0.06412519 -0.113210425
0001e0 aa eb d5 bd 52 30 83 be 57 b1 53 be 02 8f 17 be
       -0.1044534 -0.25622803 -0.20673119 -0.14800647
0001f0 f1 9e fe bd 6b 81 a6 bd 24 67 c3 bd c8 75 50 3b
       -0.124326594 -0.08130153 -0.09541157 0.0031808484
000200 93 65 ef 3c 80 fc f4 bc 63 35 07 3e d5 97 38 3c
       0.029223239 -0.029905558 0.13203959 0.011266668
000210 1f 06 bd 3d 31 c5 dc 3c af 75 d5 3d 29 0d f8 bd
       0.09229683 0.026949497 0.10422837 -0.12111885
000220 ac 3a 41 3e 4b 6a bc 3d 97 32 fd 3d 5c 9f bd bc
       0.18870038 0.09199961 0.12363165 -0.023147278
000230 e0 ec 84 3c 24 32 af bb 2e 6a 00 bd a6 01 0d bd
       0.016226232 -0.0053465534 -0.03135126 -0.0344254
000240 16 17 a6 bd 3d 88 15 bd 0b 8f 15 be f9 6a 16 bd
       -0.08109872 -0.03650688 -0.14605348 -0.03672311
000250 56 71 1a be 9f ef 49 be 05 80 5f be 64 cf b4 bd
       -0.15082297 -0.19720314 -0.2182618 -0.08828619
000260 05 00 8f bd 33 43 a9 bd 59 0c ab bd dc 2d 91 bd
       -0.069824256 -0.0826477 -0.083519645 -0.07088825
000270 cc fb 33 3d 9c 9b 99 3d 4e a5 e0 3d 53 34 0b 3e
       0.043941304 0.07500383 0.10969029 0.13594179
000280 9f 96 4c 3d 61 07 47 3d 1c 7b b5 3d e6 98 04 3e
       0.04994833 0.04859102 0.08861372 0.12948951
000290 09 ab bc 3a 74 16 b7 3d 5f 5b ad bd 94 19 04 3c
       0.0014394234 0.089398295 -0.08464693 0.008062739
0002a0 38 6d 7c 3c 8a 3f f5 bc ed aa c6 3d aa cf 19 bd
       0.015406899 -0.029937524 0.0970057 -0.03755156
0002b0 17 e3 e2 bd 10 ac a7 bd ed de 0b be 85 3f 9a bd
       -0.1107847 -0.08187115 -0.13659258 -0.07531647
0002c0 b3 b0 e7 bd e6 a2 23 3d 12 3e ae 3c 6f af 89 bd
       -0.113129996 0.039950274 0.021269832 -0.067229144
0002d0 e0 e5 9c bd 5a 7e 38 3d 08 6c 53 3d 20 cb df 3d
       -0.07661033 0.045042373 0.0516167 0.10927415
0002e0 a4 dc b6 3d e3 77 2e 3d 7e 37 5e 3d 05 5f d7 3d
       0.089288026 0.0425948 0.05425214 0.105161704
0002f0 09 1b fa 3d 47 4c be 3d de ef ac 3d ad 94 41 3d
       0.12212188 0.092918925 0.084441885 0.04726093
000300 61 8a 23 3c 8d 8e 37 3d ee ed b2 bc 2a 8e a8 3b
       0.009981723 0.04481368 -0.02184197 0.0051439004
000310 6a 87 82 3c f3 90 03 3e 9e fd 5e 3d fb 26 9e 3d
       0.015933711 0.12848262 0.054441087 0.07722279
000320 b5 5f 20 bd a8 52 ca bb 85 b6 ae 3b 22 51 d5 3c
       -0.039153773 -0.006174404 0.0053318166 0.026039664
000330 0a 89 ea 3c 79 c8 93 3d 09 c4 7b 3c f6 89 2d 3d
       0.028629798 0.072159715 0.015366563 0.042367898
000340 39 9b 93 3d 30 35 a7 3d ca d5 af 3d bf 07 3e 3d
       0.07207341 0.081644416 0.08585699 0.046394106
000350 29 78 7e bd 80 51 61 3b 12 97 e7 3c 85 85 c7 3d
       -0.062126312 0.0034380853 0.028270278 0.09742264
000360 7f 36 12 3e e7 6d ca 3d ef c7 b9 3d 21 f6 b8 3c
       0.14278601 0.098842435 0.090713374 0.0225783
000370 9d 2a cc 3d 5a 27 3b 3c 71 47 14 3c 91 79 9e 3b
       0.09969065 0.011422956 0.009050236 0.004836269
000380 48 a2 63 bd 88 cf 2d bd 06 35 af 3d 7b f6 c4 3d
       -0.055574685 -0.042434245 0.08555035 0.09617325
000390 21 85 85 3d cf 40 32 bc d5 7e b5 3d 85 39 78 3d
       0.06519533 -0.010879709 0.08862082 0.06060173
0003a0 65 f1 e3 3d 83 fd fb 3d 77 ab 32 3e cf 7b 36 3e
       0.11130027 0.12304213 0.17448221 0.17820667
0003b0 36 d6 d4 3d d0 fd ae 3d e0 6b c1 bc 39 a8 cc bd
       0.1039242 0.08544505 -0.02361101 -0.099930234
0003c0 ec 89 03 be 2e 24 e0 bc da 48 d1 3d 80 33 b7 3d
       -0.12845582 -0.027361002 0.102189735 0.0894537
0003d0 f9 b9 2f 3e 81 8c 20 3e e9 23 3c 3e cd 95 74 3b
       0.17160787 0.15678598 0.18373074 0.0037320734
0003e0 cd c7 6c bd 2a 1a ba 3c 3f 0e 31 bd 31 2c 68 bd
       -0.057807732 0.022717554 -0.043226477 -0.05668277
0003f0 48 be 1f 3d 0b c0 ed 3c 1f a7 64 3e 64 98 5d 3d
       0.038999826 0.029022237 0.22329377 0.05410041

fc1.bias f4 [28]
000000 8c c5 ef bd 94 be 28 3e 32 92 8e bd b4 08 49 3e
       -0.11707601 0.1647895 -0.06961478 0.19632226
000010 13 2d 48 3e d8 9f 15 3e d7 9d 44 3e f2 e0 06 3e
       0.19548444 0.14611757 0.19200836 0.13171747
000020 81 87 67 3d 7d 6e f0 bd f1 55 22 be b4 64 5b 3e
       0.05652571 -0.11739824 -0.15853097 0.21425134
000030 19 32 37 bd 4a ab 1e 3c 36 98 96 3e 63 b7 44 3d
       -0.04472551 0.009684393 0.29413003 0.048026454
000040 7b 74 5d be d8 4e 57 3e 85 cf ab 3d 3f 67 68 be
       -0.21626465 0.2102617 0.083891906 -0.22695635
000050 d0 85 9e 3d ce 60 7e 3e 0e 16 cf bd 59 6a 7a 3e
       0.077403665 0.24841616 -0.101116285 0.24454631
000060 ff 3d 3e 3e cb b6 1e be cb 23 8f 3e 47 cf a2 be
       0.18578337 -0.15499417 0.27956995 -0.31798765

fc2.weight f4 [10, 28]
000000 65 1a c3 be 17 f2 90 3d 71 04 17 3c c7 51 b5 3c
       -0.38106075 0.07077425 0.0092173675 0.022133721
000010 f3 ad 18 be 43 37 0a 3e d9 0c 97 3e de e0 ba be
       -0.14910106 0.13497643 0.2950199 -0.36499685
000020 4e 9d dd 3d ad 9b a1 3e ba d8 3e be a2 c4 11 bf
       0.10821019 0.31564084 -0.18637362 -0.5694066
000030 23 9b 4e 3e 69 8d 0c bc 9e 6a 50 3d e4 45 9d bd
       0.20176367 -0.008578637 0.050882928 -0.07679346
000040 a8 85 26 be 32 40 fd bd 82 92 6d 3e 79 19 f9 be
       -0.16261923 -0.1236576 0.2320042 -0.48652247
000050 0f 9e 18 3e 82 2c cf be be cb d7 bd df 6c 11 bf
       0.14904045 -0.40463644 -0.105369076 -0.5680675
000060 74 28 2c 3e b9 75 a4 bc 41 65 7e be 27 67 95 3e
       0.16812307 -0.020075666 -0.24843313 0.29180261
000070 49 5d 47 be a7 9d c5 3e 53 15 30 bd d1 d5 29 3e
       -0.19469179 0.38596842 -0.042989086 0.1658547
000080 b5 f3 19 be e2 dc d0 be 1f 03 b5 3e d1 2e 3d 3e
       -0.15034373 -0.4079352 0.35353944 0.1847489
000090 09 a3 ba be 34 e9 aa bd 2b d5 87 be 02 5d e0 be
       -0.3645251 -0.08345261 -0.26529822 -0.4382096
0000a0 eb 72 a8 be 92 97 e8 bd 85 72 94 3d 3b 02 53 3e
       -0.32900175 -0.11357035 0.07248405 0.2060632
0000b0 31 df 00 3e 14 00 00 bf 21 41 8b 3e 73 f4 e3 be
       0.12585141 -0.5000012 0.27198127 -0.44522437
0000c0 3b 56 c2 be f2 16 4e 3e 5f 8d 50 be cb 45 0f 3e
       -0.37956414 0.2012594 -0.20366429 0.13991468
0000d0 ca 45 ad 3e 52 85 27 be f4 50 9b 3e 4c ff c8 bd
       0.33842307 -0.16359451 0.303352 -0.09814319
0000e0 4d 7b d7 3d 11 97 d2 be f7 c5 80 3d af ed c2 3e
       0.10521565 -0.4113088 0.06287759 0.38071963
0000f0 d3 70 a6 be 03 20 90 3d e1 00 b1 3d 9d d7 55 3e
       -0.32507953 0.07037356 0.08642746 0.20883031
000100 85 5c 03 be 4a c0 5c be f4 b6 b8 be 70 03 ae 3a
       -0.12828262 -0.21557727 -0.36077082 0.0013276171
000110 22 2e ba bd e9 a7 b6 be 34 f2 16 bf d0 51 1b bf
       -0.090908304 -0.3567498 -0.5896332 -0.6067171
000120 8c be 7c 3e c7 04 dd 3e 5d 27 a4 bd 0b b3 51 3c
       0.24682063 0.43167707 -0.080153205 0.012799035
000130 e5 70 91 3d 71 2c 8f bd 57 23 70 3e 7d d6 00 3f
       0.07101611 -0.069908984 0.23450981 0.50327283
000140 04 33 e0 3d 9e 47 1c be a5 bb 0d 3e d0 f7 51 3e
       0.109472305 -0.15261695 0.13841112 0.20504689
000150 d3 f3 e8 3e ea 2f b2 be e4 ff b4 bd 65 2c 93 be
       0.45498523 -0.3480218 -0.0883787 -0.28744808
000160 c9 96 85 be 13 2c 92 bd 32 e5 a8 3d 0f c0 2c bd
       -0.26091602 -0.07137313 0.082468405 -0.04217535
000170 a1 25 af be 81 a0 9d 3d 9c 5c 91 3e ce 60 94 3e
       -0.34208396 0.07696629 0.28390968 0.28980106
000180 4c 1f 86 3e 33 ab d2 bd 77 e4 30 be c6 b2 0c bd
       0.26195753 -0.1028656 -0.17274652 -0.03435018
000190 fa c4 96 3e d3 20 b1 be 57 2a 8a 3d b6 79 96 3e
       0.29447156 -0.34595355 0.06746357 0.29389733
0001a0 32 9c a7 be d7 72 e4 3d 8b 3a c8 bd 4f 25 17 3c
       -0.32736355 0.111547165 -0.09776791 0.009225204
0001b0 61 a0 dc bd 00 db d4 bd e4 d5 69 3d 46 6c 49 3e
       -0.10772777 -0.103933334 0.057088748 0.1967021
0001c0 6e eb 01 3e 31 17 74 3e e9 42 9d bd d9 09 7f 3d
       0.12687466 0.23836972 -0.07678778 0.06226525
0001d0 7a 99 4e 3c 16 06 c9 3c c3 8e 41 bf ff f4 b7 be
       0.012609834 0.024539035 -0.7560846 -0.35929105
0001e0 e9 da b7 3e cb c2 89 be 42 a4 9b bd 99 3f 4f 3e
       0.35909203 -0.26906428 -0.07599689 0.20239104
0001f0 38 a4 66 bd 71 71 a5 3d ec c0 7b be 3b 4a ed 3e
       -0.056308955 0.08078278 -0.24585313 0.46345696
000200 d8 89 30 be cb 33 d5 3d 7e a4 0d 3d b2 e1 1d bf
       -0.17240083 0.10410269 0.0345807 -0.6167251
000210 42 08 24 be cc f9 1b be 7a bf 06 bd 30 94 f0 be
       -0.16018775 -0.15232009 -0.03289745 -0.46988058
000220 7c 46 ca be 39 a2 ea be 5f 43 87 3e 4b 25 dd be
       -0.395069 -0.4582689 0.26418588 -0.43192515
000230 86 8e d2 be ff d5 36 be 1c 9d 88 3e c8 14 57 bf
       -0.41124362 -0.1785507 0.26682365 -0.84016085
000240 41 60 61 3e 9c 7d 34 3e a6 51 c9 3d 18 ee 29 3e
       0.22009374 0.17626041 0.09830026 0.16594732
000250 22 a1 43 be 2c 58 2a 3e 04 d5 b6 bd 78 88 93 3e
       -0.19104436 0.16635197 -0.08927348 0.28815055
000260 38 4e 01 be e0 85 fd bd da ad 2d 3f b9 08 20 be
       -0.12627494 -0.1237905 0.678434 -0.15628327
000270 75 36 cf be 9f 77 b3 bd 15 ec e2 be c2 79 6c 3e
       -0.40471235 -0.0876305 -0.4432074 0.23093322
000280 7d ee db bd 69 67 f1 3d 16 79 81 be 76 b6 b0 3d
       -0.107388474 0.11787302 -0.25287694 0.08628552
000290 ce 30 9c be e1 3d 82 3e 88 4b 95 3e 3c 5b 25 be
       -0.30505985 0.25437835 0.29159188 -0.16148084
0002a0 e1 81 d5 be 40 51 b6 3e 54 80 4f be a3 f7 01 be
       -0.41700652 0.35608864 -0.20263797 -0.12692122
0002b0 56 1a bf be 8f 48 ce 3d c7 98 9f be 1e 31 3e 3e
       -0.3732478 0.10072433 -0.31171247 0.18573424
0002c0 67 c1 00 be 5a e5 25 3e c4 2d f0 be 3a c1 bc be
       -0.12573777 0.16200772 -0.46909916 -0.3686617
0002d0 f4 b5 90 bc 2b fd 8d 3e b0 66 c9 3d b4 1f 6a be
       -0.017664887 0.27732214 0.09834039 -0.22863656
0002e0 a8 d1 0f bf a8 bc 93 3e 37 0f c1 be fb fe 46 bf
       -0.56179285 0.2885487 -0.3770692 -0.7773282
0002f0 27 df a6 be cf 36 84 3e e9 d3 ba 3d 1b 10 8c be
       -0.32592127 0.25823066 0.0912245 -0.27356037
000300 e1 e9 3d 3c c0 51 7c 3e 70 6e 11 be ba 77 05 3e
       0.011591406 0.2464056 -0.14202285 0.13033953
000310 24 f6 07 3e e1 f6 ec bd 35 8b 58 be 86 30 9c 3e
       0.13277489 -0.11570526 -0.21146853 0.3050577
000320 0b fd a4 3d ef 7d cc ba 67 b0 03 3e 74 27 a4 be
       0.080560766 -0.0015601496 0.12860261 -0.3206135
000330 3e 3f 68 be 48 7e f7 be b7 d8 03 3e a8 4b 48 3e
       -0.22680375 -0.48338532 0.12875639 0.1956011
000340 f4 49 a7 3e 46 a4 24 3e 65 6e 94 bd 47 fc c7 bc
       0.3267361 0.1607829 -0.072476186 -0.024412287
000350 ee 7d 94 bd d8 1e 02 bf 43 64 98 3e 4c fc e6 be
       -0.07250582 -0.50828314 0.29763994 -0.45114362
000360 73 0b 8e 3d e0 ea 44 3e 46 d7 c0 be 75 65 ba 3e
       0.069357775 0.19230223 -0.3766424 0.3640553
000370 7f f3 d4 3e b0 60 13 be 66 ab e2 be a8 32 82 be
       0.41592023 -0.14392352 -0.44271392 -0.25429273
000380 06 53 17 bd 5b a4 11 bf c4 7d 8a 3e bb 54 20 be
       -0.03694441 -0.5689141 0.27049077 -0.15657322
000390 66 e5 2e be d2 ce be bb ce bc 02 bf 6b ec 86 3e
       -0.17079696 -0.0058229947 -0.51069343 0.26352248
0003a0 66 07 03 3e 54 cb 1c 3e f1 b7 1e 3e ac 43 99 bd
       0.12795791 0.15311939 0.15499856 -0.074836105
0003b0 9e ea af bc 4c 10 7b 3d cc 55 a5 be 2a af f4 3d
       -0.021474179 0.06129484 -0.3229202 0.119474724
0003c0 36 ef 30 3e e5 ac a2 be 2c ae cf be f7 04 ad be
       0.17278752 -0.31772533 -0.4056257 -0.3379285
0003d0 e6 b7 b0 3d ca 11 08 be 97 ee d4 bc 1c 6f ca bd
       0.08628826 -0.13288036 -0.025992675 -0.09884474
0003e0 5f 09 39 be cc a5 17 3d 6f cb 19 bd 16 f3 d9 3d
       -0.18069981 0.03702335 -0.037547525 0.10642068
0003f0 c1 8f 9e 3d 6d 18 dc 3d c9 59 64 3e 98 e8 17 3d
       0.07742263 0.10746846 0.22299875 0.037087053

fc2.bias f4 [10]
000000 c2 d6 52 be a3 91 7d 3e a2 c8 73 bd b0 28 32 be
       -0.20589736 0.24762587 -0.05951751 -0.17398334
000010 6c 27 0f 3e f1 51 c0 3e fb 34 f5 3d a0 ca e6 38
       0.13979882 0.37562516 0.11972996 0.000110049965
000020 be f3 97 be 92 3f 87 bc
       -0.29678148 -0.016509805
